Machine_Learning/Multiclass_Neural_Networks/neural_network_model/Phase II - Species Distribution Model.pth (torch, 8360 bytes, 8 tensors)

hidden1.weight f4 [16, 1]
000000 de cf cc 3f cd be aa 3f aa 3c be 3f 96 ca bc bf
       1.6000936 1.3339478 1.4862263 -1.4749324
000010 be 4d 80 bf 19 7d ae bf 50 cc d1 3f 81 b6 97 3f
       -1.0023725 -1.3631927 1.6390476 1.1852571
000020 e2 5a a5 bf 9b fd b4 bf cd ff 3d 3f 50 00 76 3f
       -1.291836 -1.4139894 0.74218446 0.96094227
000030 7f db 99 3f 38 ae c0 bf 5f 0d a1 bf d9 2f 7f bf
       1.202011 -1.5053167 -1.2582206 -0.99682385

hidden1.bias f4 [16]
000000 d4 64 0f 3f 98 97 26 3f 49 91 73 be 24 c2 22 3d
       0.56013227 0.65075064 -0.2378589 0.03973593
000010 bb a2 4c be 84 51 b7 3d 1e 99 18 3f 47 2e 9b bd
       -0.19983952 0.08951095 0.5960864 -0.07577186
000020 83 da 04 3e 13 71 f6 be 18 94 8d 3e 2e c4 1a bc
       0.1297398 -0.48133144 0.2765205 -0.009446187
000030 7a 66 c6 3b 66 6c 0f bf 3b 4f 14 be fe bb da be
       0.0060546966 -0.5602478 -0.14483349 -0.42721552

hidden2.weight f4 [32, 16]
000000 8c 4a c5 be 87 2e 15 be cd 61 38 bf 19 26 cb 3e
       -0.38533437 -0.1456853 -0.7202423 0.39677504
000010 09 7f 0d 3d 19 b9 b4 3d cc 08 f7 be 9a 6a 12 bf
       0.03454498 0.08824367 -0.482489 -0.5719391
000020 1e 25 d7 3e 54 bc 74 3e 8a ef ba bd 43 4c 06 bf
       0.42020506 0.23899966 -0.0912772 -0.52460116
000030 b2 d9 1a bf 60 19 18 3e 64 f2 06 3f d6 dd 91 3e
       -0.60488427 0.1485343 0.5271361 0.2848956
000040 bd 0c 47 bd 9e ea 82 be fe 2d f4 be e4 7a c2 3e
       -0.048596133 -0.25569624 -0.4769134 0.37984383
000050 87 e0 b9 3d d5 02 88 3e e8 c6 db be dd e8 4d be
       0.09076028 0.2656466 -0.4292519 -0.20108362
000060 34 10 95 3e af 25 e4 3e 6a 4c 7f bd 18 48 09 be
       0.29113925 0.4456 -0.062328734 -0.13406408
000070 12 a6 95 be 6c ce d4 3e 16 53 20 3f 60 c4 32 3e
       -0.29228264 0.41563737 0.6262678 0.17457724
000080 5a 89 a4 be 94 1b e6 be 76 b7 26 bf da 5d da 3e
       -0.3213604 -0.44942915 -0.6512369 0.42649728
000090 b8 83 4c 3e bc 57 0e 3d 80 cb 9a be a1 13 8b be
       0.19972122 0.03475164 -0.30233383 -0.27163413
0000a0 ec 84 98 3e 66 f3 62 3e 79 64 ea bb 0c 30 9d bd
       0.2978891 0.22163162 -0.0071530906 -0.0767518
0000b0 d5 92 13 bf 91 a1 b6 3e 35 73 96 3d 28 5d be 3e
       -0.5764592 0.3567014 0.07346193 0.37180448
0000c0 ba d8 d6 be da f2 10 bf 9a f9 28 bf a0 c8 a8 3e
       -0.41962224 -0.5662056 -0.6600586 0.32965565
0000d0 d8 5d d4 3e 96 c9 55 3d a8 78 07 bf e8 96 36 bf
       0.41477847 0.0521942 -0.5291848 -0.71324015
0000e0 35 a1 fa 3e fb 01 57 3e a8 3b 96 be 36 76 6b be
       0.48951116 0.20996849 -0.2934239 -0.22994313
0000f0 d5 f0 86 be f4 48 fe 3e c8 8d b7 3e 15 ed 25 3e
       -0.26355615 0.49665034 0.35850358 0.16203721
000100 fd 1b 93 3e 21 dc a6 3e cc 53 f5 3e 72 11 84 be
       0.2873229 0.3258982 0.47915494 -0.2579456
000110 63 fb 72 be f9 af 7e bc b4 21 0e 3f e7 dd 28 3f
       -0.23728709 -0.015544885 0.55520177 0.65963596
000120 77 2d cd be 89 62 f4 be 87 48 5d 3e 98 f5 fb 3e
       -0.4007375 -0.47731426 0.21609698 0.4921081
000130 ef 6e 89 3e 80 7c 07 bf 3e 3e a0 be dd 34 7c be
       0.26842448 -0.52924347 -0.31297487 -0.2462954
000140 e5 e7 e6 3e 2f e6 89 3e a5 e3 0e 3f d2 f6 c1 be
       0.45098796 0.2693343 0.5581611 -0.3788362
000150 dc fe 60 be 47 b1 8e be b5 7b a5 3e d4 ad ab 3e
       -0.21972221 -0.27869627 0.32320943 0.33531058
000160 f5 00 c3 be c0 92 cb be 92 21 a6 3e 56 4e 57 3e
       -0.38086668 -0.397604 0.32447487 0.21025977
000170 38 87 ac 3e 1e e0 11 bf df 2c cb be de 30 7e bd
       0.33696914 -0.569826 -0.3968267 -0.062058322
000180 20 23 cc be 9e 65 a2 be 58 4a 47 bf 02 5b 92 3d
       -0.39870548 -0.31718153 -0.77847815 0.071462646
000190 ce 14 2e 3e 39 66 7b 3e 44 46 18 bf 56 c1 ea be
       0.17000124 0.24550714 -0.59482217 -0.4585063
0001a0 3e a0 70 3e a0 ea dc 3e dd 03 6e be e0 fe 0b bf
       0.23498628 0.43147755 -0.23243661 -0.54685783
0001b0 01 fa eb be ff 3a 15 3f cb 76 14 3e a3 44 02 3f
       -0.46089175 0.58293146 0.14498441 0.5088598
0001c0 40 24 0f 3f a7 19 01 3f 76 6f 0d 3f bc ed f0 3d
       0.5591469 0.5042977 0.552482 0.11764094
0001d0 88 14 6f be f5 17 f0 bd 86 a7 f3 3e bd 1f 3d 3e
       -0.23347676 -0.117233194 0.47588748 0.18469138
0001e0 5c a7 30 be 35 5b 3d be 28 3f 4a 3e 8c 8f 48 3e
       -0.17251343 -0.18491824 0.19750655 0.19586009
0001f0 50 a7 cf 3e c8 99 5d bd 7f 8f ea bd 36 1e 49 be
       0.40557337 -0.054101735 -0.11453151 -0.19640431
000200 d7 59 f3 3e 8b df 0c 3f e8 9b b5 3e 25 01 01 bf
       0.4752948 0.550286 0.3547051 -0.5039237
000210 69 f8 b4 bd ae 38 c7 bd b5 c7 94 3e 52 05 1a 3f
       -0.08836443 -0.09727608 0.29058614 0.6016437
000220 57 d5 b4 be 60 69 d0 be 9d d2 9d 3e ad 85 ab 3e
       -0.35319015 -0.40705395 0.30824748 0.33500424
000230 5e fd 23 3f 55 6a 8a be 97 9d b3 bd b7 2c 95 bd
       0.6405848 -0.2703425 -0.08770292 -0.07283919
000240 0d 1e 2a 3d aa b3 5b 3e 94 7b 67 3e 49 07 d8 be
       0.041532565 0.21455255 0.22605735 -0.42193058
000250 70 29 9e be 3b 9f 15 bf ee 4e 0d 3e b9 1e f5 3e
       -0.3089099 -0.5844609 0.1379964 0.47875002
000260 ec 31 9f be e8 84 e2 be e5 e6 8b bd 94 ac d8 3e
       -0.31092775 -0.44242024 -0.06831149 0.42319167
000270 b4 db d1 3e 10 a4 15 bf 59 d0 f6 be 84 e9 b7 be
       0.40987933 -0.58453465 -0.48205832 -0.35920346
000280 d0 11 85 3e df db d8 3b 15 49 81 3d 91 bc 2d 3e
       0.25990152 0.0066180076 0.063127674 0.16966464
000290 02 a2 7e 3e 21 2d b2 3e b0 34 d2 3e 41 9b 91 3d
       0.24866489 0.34800056 0.41055822 0.071096905
0002a0 ba d9 e9 bc 30 7c 08 be f6 1b 0d 3e 77 e9 75 bd
       -0.028546203 -0.13328624 0.13780198 -0.060037103
0002b0 9e 6b 9e 3e 82 e8 92 bd ca 25 90 3e dc 04 3c be
       0.3094148 -0.071732536 0.2815383 -0.18361229
0002c0 96 b7 13 3f d9 e9 8c 3e a1 c6 0f 3f 10 47 db be
       0.57702005 0.27522162 0.5616246 -0.42827654
0002d0 d1 6e 10 be 45 a2 17 be 1b 8b 1d 3f 92 4f da 3e
       -0.14104773 -0.14807995 0.61540383 0.42638832
0002e0 61 40 4b be d2 ae 92 be 7d f9 fb 3d 12 c5 e1 3e
       -0.19848777 -0.28649002 0.123034455 0.44095665
0002f0 87 50 00 3f f9 78 fb be b1 c0 94 bd 44 f3 72 be
       0.50122875 -0.49115732 -0.072633155 -0.23725611
000300 8e 62 2d be f0 fd 4c bd fc de ee be 19 f3 13 3f
       -0.16932127 -0.05004686 -0.466545 0.5779281
000310 bd d2 c6 3e fd ab 17 3f d0 cf 88 be 0f 83 b8 be
       0.38832656 0.5924681 -0.26721048 -0.3603749
000320 11 25 d0 3e e4 ee eb 3e 3d ed 5f be 4c 34 18 be
       0.4065328 0.46080697 -0.21867843 -0.148637
000330 c3 7e 6c be 39 fc 42 3f b7 67 da 3e db 8b ac 3e
       -0.23095231 0.7616611 0.42657253 0.3370045
000340 7a 78 f6 3e 06 fa cd 3e 2a 4e b6 3e fb 8c ed be
       0.4813879 0.40229815 0.3560651 -0.46396622
000350 dd 52 e8 be d5 08 8a be df 8b f6 3e 2e 3f 15 3f
       -0.4537572 -0.26959863 0.48153588 0.5829953
000360 64 7c 42 bd bd e3 7e be 0b a3 01 bd 05 01 62 3e
       -0.04748191 -0.24891563 -0.03164963 0.22070701
000370 8f a3 82 3e 38 a0 19 bf 02 e2 8f be a4 74 d3 be
       0.2551541 -0.600101 -0.28102118 -0.41299927
000380 27 c7 c2 3e 70 9c cb 3e 52 8d 71 3e e1 d6 e8 3b
       0.38042566 0.3976779 0.23589066 0.0071056937
000390 c2 d2 1e be d9 9a ab be 27 5e b5 3e 7f f9 ca 3e
       -0.15510085 -0.33516577 0.35423395 0.39643475
0003a0 1f 15 b2 be 6c 3a 83 bb c8 1f 4d 3e a2 76 9e 3e
       -0.3478174 -0.004004767 0.20031655 0.30949885
0003b0 8b b5 21 3e 05 89 1b be 18 5a 94 be 2d f4 d2 be
       0.1579191 -0.15188988 -0.28974986 -0.41201916
0003c0 9d c3 df be a7 5f ff be 45 21 08 bf 62 d0 9f 3e
       -0.4370393 -0.49877664 -0.53175765 0.3121367
0003d0 8c 7d 27 3e ea cc 47 3e 98 ce 21 bf 9a 83 d5 be
       0.16356486 0.19511762 -0.6320586 -0.41701967
0003e0 e7 59 98 bd aa a4 1c 3e a6 7d a5 bd 8d 01 c7 be
       -0.074390225 0.1529719 -0.08080606 -0.3886837
0003f0 c3 26 13 bf 17 fd c5 3d 2c e1 cc 3e d1 73 12 3d
       -0.5748102 0.09667414 0.40015543 0.035754982

hidden2.bias f4 [32]
000000 73 81 f9 bd 6a aa f3 3d a7 c6 36 be 61 bf 8d bd
       -0.121828936 0.11897738 -0.17849217 -0.06921268
000010 11 be 38 3e c6 9a 48 3d e3 97 61 be 0e 33 15 3c
       0.18041255 0.04897573 -0.22030596 0.009106411
000020 9c 4c 24 3c 77 52 ac 3d e3 cb 34 be e2 2a d4 bd
       0.010028031 0.084141664 -0.17655902 -0.10359742
000030 93 9e 63 3d 6e b8 e3 3c e4 56 62 bd 3b ee b2 3c
       0.05557115 0.027797904 -0.055258647 0.021842113
000040 ea f8 60 bd 76 07 5c be 0a 99 7f be 16 6a 83 be
       -0.054924883 -0.21487221 -0.24960724 -0.25666875
000050 4d 50 22 be bf 0d 97 be be d4 f9 3c 5b 9c a2 3d
       -0.15850945 -0.29502675 0.030496951 0.07939979
000060 db 13 20 bd 73 a6 3e 3d ea 4b dc 3d ed 1d cf bc
       -0.039081436 0.046545457 0.10756667 -0.025282824
000070 af 70 a0 be c5 4d 8b be 72 f3 aa 3d bf 8b 95 3d
       -0.3133597 -0.2720777 0.08347215 0.07302045

hidden3.weight f4 [16, 32]
000000 87 b1 8c be e8 46 33 be a8 38 86 be b1 05 76 be
       -0.27479193 -0.17507517 -0.262151 -0.24025609
000010 84 d8 5b 3e e3 17 0b 3f 83 5a 12 be 6d a3 a0 3e
       0.21469313 0.54333323 -0.1429234 0.31374684
000020 14 9e a5 3e 58 07 da 3e d3 66 a3 3d e0 8b c7 3e
       0.32347167 0.42583728 0.079785965 0.38973904
000030 39 62 c1 3b 44 0f 8f 3e 2b b7 b3 3e 77 e1 11 bd
       0.0059016016 0.27941334 0.35100684 -0.03561541
000040 26 17 68 3e a9 d9 cf bd e7 1f 5c be a0 86 2e 3d
       0.2266508 -0.10148937 -0.21496545 0.042608857
000050 23 84 c8 3c ac 0a 4b be a6 53 b9 3e f4 0b 8a be
       0.02447707 -0.1982829 0.3619663 -0.26962245
000060 51 c8 0c 3f a2 17 33 ba 33 1b 5e be 7e df 70 bd
       0.5499316 -0.00068318297 -0.21690063 -0.05880689
000070 1b 59 1e be a1 db 6d be 25 63 88 be 00 22 47 3e
       -0.15463679 -0.23228313 -0.2663814 0.19446564
000080 2d 88 af 3c fc 09 25 bd a0 2c d1 3c 6a e2 e3 3d
       0.021427238 -0.040292725 0.025533974 0.111271694
000090 94 54 91 be e3 16 a4 bd cf 29 1c 3d c8 7b 55 be
       -0.2838484 -0.08012178 0.03812581 -0.20848
0000a0 6f 98 7f bd f4 9a a8 bd a8 a0 1f be da 25 9c be
       -0.06240123 -0.0823268 -0.15588629 -0.30497628
0000b0 fd 0f 3a 3e 66 de 57 be 26 17 44 be 84 f4 94 3d
       0.18170162 -0.21080932 -0.19149455 0.072732
0000c0 68 12 2b 3d c8 3d 48 3e 42 1d 87 3e 5f 2f 58 bd
       0.0417656 0.19554818 0.2638951 -0.05277955
0000d0 12 d5 ad 3d 20 d7 35 3e 1e 82 29 be 28 ff ab bb
       0.084879056 0.17757845 -0.16553542 -0.005248923
0000e0 3e 3d ba be 9f b2 a8 3d 61 de 28 3e ea b7 85 bd
       -0.3637485 0.08237194 0.16491081 -0.065292194
0000f0 ea 83 bc 3e 8d a6 20 3e 3c 0f 86 3e 97 be a0 be
       0.36819392 0.15688534 0.26183498 -0.3139541
000100 55 92 b5 be 12 68 92 be 41 c2 8b be e9 78 e1 be
       -0.35463205 -0.28595024 -0.2729664 -0.4403756
000110 91 30 9a 3e 95 28 c6 3e 0c 8e fa be da a2 6c 3e
       0.30115178 0.38702837 -0.48936498 0.23108998
000120 51 33 91 3e eb 0a cc 3e 58 e5 7d 3d f3 69 9d 3e
       0.28359464 0.3985208 0.061986297 0.30744895
000130 2c 2c 20 be 17 47 d5 3e d4 95 44 3d 22 f0 9d be
       -0.1564185 0.416558 0.04799445 -0.3084727
000140 0c 4b aa bd c0 fe a9 be ff 7b be be 3c d4 85 be
       -0.08315095 -0.3320217 -0.37203977 -0.26138484
000150 24 8a 21 be b0 8b be be 73 c5 be 3e e9 cb a3 be
       -0.15775353 -0.37215948 0.37260017 -0.3199151
000160 5a 76 94 3e d3 01 d8 3d 24 e6 a2 be f3 bd c5 be
       0.28996545 0.10547223 -0.31816208 -0.38621482
000170 e6 ec 8a be ab 2e 94 be ac 41 3e be 7d 66 c3 3e
       -0.27133864 -0.28941855 -0.1857974 0.3816413
000180 3d 22 10 bf 9e cb f9 be 57 c8 cd be 61 b6 28 bf
       -0.56302243 -0.4878816 -0.4019191 -0.6590329
000190 07 7c 30 3e 89 eb ad 3e 9b 16 2d bf 2d d3 aa 3b
       0.17234813 0.33968762 -0.6761262 0.0052131624
0001a0 28 a2 18 3e 90 b7 37 3e 2f 26 86 3d 0d 13 5a 3e
       0.14905608 0.17941117 0.06550252 0.2129633
0001b0 2f 80 12 bf 56 42 a3 3e 0b 58 09 3d 0c ab 9f be
       -0.5722684 0.31886548 0.03353123 -0.31185186
0001c0 41 30 22 3e cf 49 2c bf 0f 4e 20 bf 4d 3a dd be
       0.1583872 -0.6730012 -0.6261911 -0.43208542
0001d0 10 40 ef be ec 36 ee be bd 40 92 3e cd ad 1f bf
       -0.46728563 -0.46526277 0.28565016 -0.62374574
0001e0 7a 15 9f 3e d0 ff d5 3d 4f 68 2c bf dd 69 26 bf
       0.31071073 0.10449183 -0.6734666 -0.65005285
0001f0 42 ac b8 be 3c 1e c5 be c8 13 0c bf 98 a5 25 3e
       -0.36068922 -0.3849963 -0.54717684 0.1617645
000200 a1 be 85 3e ec bf e5 3c 33 c2 f8 3d 0f 26 7e 3e
       0.26122 0.028045617 0.121464156 0.24819206
000210 56 40 d7 be a5 48 a8 be cf a0 b3 3e 55 6d a0 be
       -0.42041272 -0.32867923 0.35083625 -0.31333414
000220 59 e5 51 be 46 35 b9 be bd bd 03 bd b8 76 c6 be
       -0.20497645 -0.36173457 -0.03216337 -0.3876245
000230 45 96 0d 3e 91 36 cd be 28 a0 40 bd d9 b0 43 3e
       0.13826855 -0.40080693 -0.047027737 0.19110431
000240 1d 74 e5 bd 94 86 b0 bc be 54 19 3d 48 1f 4b 3e
       -0.112037875 -0.021548547 0.037434332 0.19836152
000250 28 17 a2 bd 97 1a 96 3e fe f4 0e bf a3 bb 84 3e
       -0.07914573 0.2931716 -0.5584258 0.25924405
000260 89 dd e3 be 99 31 cd 3c eb 9f 70 bc 5a 1d a2 3d
       -0.44504955 0.025048064 -0.014686565 0.079157546
000270 6b 37 e0 3d 44 d2 58 3e 27 70 e7 3d 9f df 69 be
       0.1094807 0.2117396 0.11300688 -0.22839211
000280 b4 94 56 3e e3 ad 5b 3e cf b8 bd 3e 3e cd ee 3e
       0.20955163 0.21453051 0.3705506 0.46640962
000290 bb 28 c6 be ab 7f d9 be dd 19 80 3e ae 76 08 bd
       -0.3870295 -0.42480215 0.25019732 -0.033316307
0002a0 69 f3 b7 bd 90 b9 aa be 66 bc ca bb 97 4e 00 be
       -0.08981974 -0.33344698 -0.0061870096 -0.1252998
0002b0 09 98 52 3e f0 7e c6 be 14 43 18 be 6d 42 77 3e
       0.2056581 -0.3876872 -0.14869338 0.24146433
0002c0 ae ae 15 3e c7 d1 c4 3e 17 66 f4 3e f5 d8 c2 3e
       0.14617416 0.38441297 0.47734138 0.3805615
0002d0 d1 e8 4b 3e 13 4f 9a 3e 45 67 d5 be 31 c8 3d 3e
       0.19913031 0.30138454 -0.4168035 0.18533398
0002e0 14 9e 57 be 30 13 1b be d3 83 a7 3e e5 c3 9c 3e
       -0.21056396 -0.15144038 0.3271776 0.30618206
0002f0 d7 3f f0 3e f9 1d 8f 3e ff 01 a1 3e 35 50 8d be
       0.46923706 0.27952555 0.31446835 -0.27600256
000300 ef f8 13 be 4b 4a 65 3e 66 63 0a be 33 f1 1b 3d
       -0.1445043 0.22391622 -0.1351448 0.038071822
000310 da d4 b0 3d fb 66 8d 3c 58 ef c0 3a 8c 28 cc 3d
       0.08634348 0.017261019 0.0014719767 0.09968671
000320 08 c6 a3 3d 12 7e 4e be 45 3f d9 3d 2d 1a 20 3e
       0.07996756 -0.2016528 0.10607771 0.15634985
000330 53 08 0f 3e d3 24 f8 bd f9 3f 87 bc 14 9a 08 be
       0.13968019 -0.12116399 -0.016509997 -0.13340026
000340 ff fd 12 bd ff 38 fb 3c cc 60 1f 3e 9e 2e 16 3e
       -0.03588676 0.030666826 0.15564269 0.1466622
000350 0a 34 9a bd 54 73 75 3c 69 ac fe 3c 26 a8 a8 3d
       -0.07529457 0.01498111 0.031088071 0.08235197
000360 89 9e 3f 3c c0 bb 04 be dc a5 44 3e 4e 93 42 3e
       0.011695513 -0.12962246 0.19203895 0.19001505
000370 68 d9 04 3e 5f a3 11 be 97 0d 34 3e 65 50 5f bd
       0.12973559 -0.14222477 0.17583309 -0.05452003
000380 ac fc 10 be 72 7c 9b 3c 1b f1 56 be e7 90 97 be
       -0.14158887 0.018980239 -0.20990412 -0.2960274
000390 cf 80 ad 3e 7c 8d fa 3e f2 e9 d4 be 1a 75 99 3e
       0.33887336 0.4893607 -0.41584736 0.29972154
0003a0 3e 3f db 3e ff 7d f9 3e f0 e1 97 3e 6b 7a b3 3e
       0.42821687 0.4872894 0.29664564 0.35054335
0003b0 f6 b8 41 be 20 c5 0c 3f 23 cf 32 3e 8e 70 97 be
       -0.18918213 0.5498829 0.17461829 -0.2957806
0003c0 48 98 8d 3e f3 56 88 3c 2a cb 3f be 4a d4 3e be
       0.27655244 0.016643023 -0.18729845 -0.1863567
0003d0 c2 ae df bc 24 50 6d be 51 63 0c 3f a8 31 94 be
       -0.02730501 -0.23175102 0.54839045 -0.28944135
0003e0 10 eb 9f 3e 04 20 4f 3e 7f 3e e4 3b 6e f0 0d bc
       0.31234026 0.20227057 0.006965458 -0.00866328
0003f0 33 76 da be 6c 54 3f be 48 1e 99 be 01 cf 57 3e
       -0.42668304 -0.18684548 -0.29905915 0.2107506

hidden3.bias f4 [16]
000000 c5 5d 47 3e 91 22 af 3b c7 97 77 bd 61 25 60 be
       0.19469364 0.005344697 -0.06044748 -0.21889259
000010 7c c5 18 be 64 5f f9 bd ff cc 38 3b 79 3e 69 3c
       -0.14919084 -0.121763974 0.002819836 0.014236086
000020 00 a6 53 bd 1f dd 8f 3e 9d fb 17 3e a5 f4 a2 3c
       -0.05167198 0.2809839 0.14842077 0.019892046
000030 f2 9e c2 3d fb 58 ff bd 69 25 b9 bd 48 f0 12 bd
       0.09502973 -0.124681436 -0.090403385 -0.03587368

out.weight f4 [5, 16]
000000 34 11 8c 3d 47 a2 96 3d af e8 c5 3e 3a cd e4 bd
       0.06839219 0.07355171 0.38654086 -0.11171956
000010 c9 d4 0c be db 2b 81 be b1 6f 5c 3e 1d 57 ba 3e
       -0.13753046 -0.25228772 0.21526982 0.36394587
000020 c4 97 94 bd 8b ad c8 3d c8 e3 04 3d de 34 b0 3c
       -0.072555095 0.09798726 0.03244379 0.021509584
000030 09 0c 28 3d 65 ae b4 be e2 db 71 be f9 ac 42 3e
       0.041027103 -0.35289302 -0.23619035 0.19011296
000040 cd e8 ff 3d 2f b4 10 be 7d 76 87 be 27 50 e0 be
       0.12495575 -0.14131235 -0.26457587 -0.4381115
000050 72 8a e0 bb 51 64 15 3e f7 1e 65 3e 80 55 59 bc
       -0.0068524415 0.14589049 0.22375093 -0.013265014
000060 0e 9d 99 3d 64 35 8b 3d 6b fa b5 3c 19 d0 a4 bd
       0.07500659 0.06797293 0.022214135 -0.08047504
000070 56 86 55 3d 66 5a 0b 3d a2 9e 99 3c da 80 ed 3d
       0.052130066 0.034021758 0.0187524 0.11596842
000080 dd 93 30 3e 93 77 e7 3c d6 28 a4 3e f3 05 20 3f
       0.17243905 0.02825526 0.32062405 0.6250908
000090 61 97 b7 bc 82 6d a9 be d5 27 89 be cf 2b 81 3e
       -0.02241105 -0.3309136 -0.26788202 0.25228736
0000a0 85 31 b2 be 57 a6 cd 3e 54 a2 bf be a0 e7 15 3e
       -0.34803405 0.4016597 -0.37428534 0.14639139
0000b0 71 f0 b1 3e c0 0a 1c bf 97 d5 f1 bd 65 24 a1 be
       0.34753755 -0.60953903 -0.11808317 -0.3147308
0000c0 37 96 f5 be 99 c5 e8 3e 42 20 5c bf 92 d5 7d bf
       -0.47966167 0.45463255 -0.8598672 -0.9915401
0000d0 38 2a 08 3f 84 3f 04 3f b5 2c f5 bd 64 7b 48 bf
       0.5318942 0.5165942 -0.11971418 -0.7831328
0000e0 4e a0 cd 3e 05 24 2e bf 2e 79 f0 3e 90 89 23 bf
       0.40161365 -0.6802371 0.46967453 -0.6388178
0000f0 1f 97 1b bf fb 4b 4c 3e 12 36 9a 3e 98 d5 c0 bd
       -0.6077747 0.19950859 0.30119377 -0.0941574
000100 ed 02 08 3d 98 28 94 be 20 fa c6 bc 8b 7a 5f bc
       0.033205915 -0.2893722 -0.02428919 -0.013640056
000110 58 83 42 be 95 5c 15 be e9 10 87 be c0 b5 c3 3b
       -0.18995416 -0.14586098 -0.2638009 0.005972594
000120 2e 84 53 3e 96 bc 2a 3e 9f 80 de 3d 69 3c 1a be
       0.20655891 0.16673502 0.10864376 -0.15062107
000130 b7 bc 6e 3e 5f 2e e6 3d bd 65 aa bd c4 57 d5 bc
       0.23314176 0.11239313 -0.08320186 -0.026042826

out.bias f4 [5]
000000 16 13 df bb cc 2f 28 be 8e 8c 6a 3e d2 40 17 3e
       -0.006807695 -0.16424483 0.2290518 0.1477082
000010 ab 73 42 3e
       0.18989436
