Machine_Learning/Multiclass_Neural_Networks/neural_network_model/Phase I - Species Distribution Model.pth (torch, 8156 bytes, 8 tensors)

hidden1.weight f4 [16, 1]
000000 85 6a 87 3f 5a a4 e0 3f 27 66 a5 bf 4b af cd bf
       1.0579382 1.7550156 -1.29218 -1.606912
000010 82 96 1d 40 5d e8 f4 bf 81 e4 06 3f 4f 5d ff bf
       2.4623113 -1.9133412 0.5269242 -1.995035
000020 9b 2c 0e 40 ee c3 7a 3f f2 d5 16 40 02 82 0f c0
       2.2214725 0.97955215 2.3568082 -2.24231
000030 2c 22 10 c0 1e 8c 0a 40 f1 43 9e 3f fa 67 12 40
       -2.2520857 2.164802 1.2364484 2.2875962

hidden1.bias f4 [16]
000000 58 ec 18 bf af c5 a6 3e e9 ca f1 bd 7a 4c d3 be
       -0.5973563 0.32572696 -0.1180628 -0.41269284
000010 90 e6 68 3e af 20 22 bf 4a fb 4d bf 45 9f d1 3e
       0.22744203 -0.6333112 -0.8046156 0.40941826
000020 da 4c 05 3e d8 75 3b 3e 80 2c ea be cc 80 b0 be
       0.13017598 0.18306673 -0.45737076 -0.34473264
000030 40 a2 d7 3d f8 ac f0 bd 9c 80 b1 be 29 9e 5d be
       0.105289936 -0.11751741 -0.34668434 -0.21642365

hidden2.weight f4 [32, 16]
000000 af 28 fa 3d d1 1c 0b 3f 22 4c e2 be 86 0f a0 be
       0.12214791 0.54340845 -0.4419871 -0.31261843
000010 cd a6 22 3f 84 83 03 bf de af 2a 3e c5 38 aa be
       0.6353577 -0.5137255 0.1666865 -0.33246437
000020 da 3d 1d 3f 9b 15 1b 3e 11 57 c9 3e d7 43 2b bf
       0.61422503 0.1514496 0.3932424 -0.6690039
000030 4d 33 ee be f7 5f 04 3f 5b 7f 56 3e 0d 99 0e 3f
       -0.46523514 0.5170893 0.2094702 0.55702287
000040 d6 21 a5 bd d6 6c a8 be 72 57 ae 3d 89 6c 77 3e
       -0.08063094 -0.32895535 0.085127726 0.24162497
000050 03 90 2a bf 4d d2 f9 3e 78 e9 eb 3d f2 cc 86 3e
       -0.66625994 0.4879326 0.1151914 0.26328236
000060 19 51 0e bf 6b 9f 20 be 39 2b 32 bf ff 8a c6 3e
       -0.55592495 -0.15685813 -0.695972 0.3877792
000070 89 02 10 3f e9 7a 28 bf 3a e8 93 be 00 d4 1b bf
       0.5625387 -0.65812546 -0.28888112 -0.6087036
000080 7b 12 94 3e fd 0c f1 3e bc c6 45 be 49 85 93 be
       0.2892035 0.47080222 -0.19314092 -0.28812626
000090 53 46 7e 3e 96 5f ac be 14 5b 8f 3e 08 d7 c9 bb
       0.24831514 -0.33666676 0.27999175 -0.006159667
0000a0 df 1c e1 3e ae 9e 63 3e a9 f6 c4 3e 9e 4f 99 be
       0.4396734 0.222285 0.38469437 -0.29943556
0000b0 40 42 cf be 99 2d 9e 3e f8 ea 10 3e ca 8c 24 3f
       -0.40480232 0.30894163 0.14152133 0.6427733
0000c0 ea e1 8f be 4b 30 98 be ad 87 a8 3e 5b 12 c9 3d
       -0.28102046 -0.29724345 0.32916012 0.09817954
0000d0 82 b5 a7 be 86 e7 5b 3e 72 c6 00 3e 57 46 b5 3c
       -0.32755667 0.21475038 0.12575701 0.022128267
0000e0 e0 09 09 bf ba c7 b2 be 7a 3e b5 be b2 62 20 3e
       -0.53530693 -0.34918004 -0.35399228 0.1566265
0000f0 fc ee 4e 3e 3d e3 bf be d3 45 2f bb ea 1a 29 bf
       0.20208353 -0.37478057 -0.00267445 -0.6605669
000100 df 0a dd be 38 d4 e4 be 03 0a 3e 3e db c2 be 3e
       -0.43172356 -0.4469316 0.18558507 0.37258038
000110 76 c1 98 be e6 7f f6 3e 8b b5 6d be a3 26 02 bd
       -0.298351 0.48144454 -0.23213784 -0.031775128
000120 6d e8 bb be 23 72 46 bd f2 2c 3e bf d1 a9 d1 3d
       -0.36700764 -0.048448693 -0.7428733 0.10237468
000130 cb de 92 3e be a9 86 be 79 de 5d be 90 09 f9 be
       0.28685603 -0.26301378 -0.21666898 -0.48640108
000140 9a 95 80 be 20 64 c4 be fb 9f 99 3d 99 73 00 3d
       -0.25114137 -0.3835764 0.07501217 0.031360243
000150 34 86 c8 be 6d b7 ae 3d 61 bf 93 bd 4c 87 b5 3c
       -0.3916489 0.085310794 -0.07214237 0.022159241
000160 4a 36 08 bf f3 c1 91 bd 2b 51 c3 be 6e ab 3b 3e
       -0.5320784 -0.07117071 -0.38147864 0.18327114
000170 64 a3 db 3c a6 98 da be 0a 82 f3 bd a3 52 b3 be
       0.02681131 -0.42694587 -0.11890037 -0.35023984
000180 12 70 f1 3c ed 2b a2 be ea 69 82 3e b3 0a 91 3d
       0.029472385 -0.31674138 0.2547143 0.07082119
000190 f2 b9 f2 be 47 cd 00 3f 69 54 1c be 0f 2e 7e 3e
       -0.4740749 0.5031323 -0.15266575 0.24822257
0001a0 e5 d7 a2 be 0e 3a aa be d4 a3 e0 be dd 9e 12 3e
       -0.3180534 -0.33247417 -0.4387499 0.14318414
0001b0 b9 ac 0c 3e f9 4e f4 be 4a 87 a9 be 60 8a a5 be
       0.13737763 -0.477165 -0.3311103 -0.32332134
0001c0 b7 78 9f be 62 5e f7 be e1 56 40 3e 5c 38 a0 3e
       -0.31146786 -0.48314196 0.18783142 0.31293
0001d0 33 27 0c bf 26 64 61 3e e8 b8 8c 3c cc 6e 34 3e
       -0.54747313 0.2201086 0.017178014 0.1762039
0001e0 e9 17 18 bf 82 e8 2e be 5b 44 2d bf ea 7e 8d 3e
       -0.59411484 -0.17080882 -0.6768243 0.2763589
0001f0 f1 e6 bb 3e 68 24 ba be fa 9f 8a be e4 61 2a bf
       0.36699632 -0.363559 -0.27075177 -0.6655562
000200 c4 2d c5 3e 1b 0b ce 3e f1 c2 60 be 7c d7 07 bf
       0.3851148 0.40242848 -0.21949364 -0.5306318
000210 84 25 12 3f 0d 76 ba be 3a bb 70 3e 1f 9d df be
       0.57088494 -0.3641819 0.23508921 -0.4367456
000220 f5 7f b3 3e f7 b6 01 3e 99 13 02 3f e2 da d5 be
       0.3505856 0.12667452 0.50811154 -0.41768557
000230 4b 9e e0 be 9a 57 b9 3e 88 17 fd 3e c5 71 3b 3f
       -0.43870768 0.36199647 0.49432015 0.73220474
000240 79 33 b1 3d 46 af 9f 3e ba 3f 2b be 72 aa e9 be
       0.08652396 0.3118841 -0.16723529 -0.45637852
000250 c9 b7 04 3f 04 a8 09 be 03 30 5c be b9 9a ce be
       0.51842934 -0.13442999 -0.2150269 -0.4035242
000260 b5 e0 c1 3e a1 9e ca 3d 82 9b 9c 3e ff 27 4a be
       0.3786675 0.09893537 0.30587393 -0.1974182
000270 c3 d1 b5 bd 0e f8 fe 3e c6 97 09 3d ff cb 8a 3e
       -0.088778995 0.49798626 0.033592008 0.27108762
000280 e8 90 21 be b7 ee a1 be 16 30 8d 3d 64 c4 41 3e
       -0.15777934 -0.31627437 0.06893937 0.18922573
000290 d7 39 ed be 85 4a b6 3e 2c 7f ad be f0 89 0d bd
       -0.4633319 0.3560373 -0.33886087 -0.034555376
0002a0 85 a2 7d be ac 1d 78 bd fa 99 1d bf 8e 4e 74 3e
       -0.24769028 -0.060575172 -0.61563075 0.23858091
0002b0 8d fc 33 3e 6f 36 28 bf cb 81 d8 be c9 af ba be
       0.17576809 -0.6570806 -0.42286524 -0.36462238
0002c0 1c 50 2e be b7 f3 7c be 8e 03 82 3e cc 45 6a 3e
       -0.17022747 -0.24702345 0.25393337 0.22878188
0002d0 a9 12 12 bf 52 9f 18 3f 9a 95 55 be 22 f4 8c 3c
       -0.57059723 0.59618104 -0.2085785 0.017206255
0002e0 8a bb fe be 9a 63 98 be 8e 79 27 bf d9 e9 03 3f
       -0.49752456 -0.2976349 -0.6541985 0.515287
0002f0 1a 66 fb 3e 74 dd 13 bf 81 cf 92 be a0 73 21 bf
       0.49101335 -0.57759786 -0.28673938 -0.63067055
000300 cb 5a ab be 13 28 bc be 27 ad 06 3e 30 2d d6 3e
       -0.33467707 -0.36749324 0.1315199 0.4183135
000310 50 c4 cb be 6c 91 9e 3e 88 b1 02 bd 88 18 be 3d
       -0.39798212 0.30970323 -0.03190759 0.09282023
000320 11 74 f5 be 7e a3 b6 bc 76 65 31 bf 71 7d 12 3f
       -0.47940114 -0.022294756 -0.6929544 0.5722266
000330 d2 94 a4 3e de 25 33 bf bf 61 ff be 4e 84 e8 be
       0.3214479 -0.69979656 -0.49879262 -0.4541344
000340 8d 38 55 be 54 cf 85 be 4f 5a 2e 3d 86 94 ed 3e
       -0.20822354 -0.2613474 0.042566594 0.46402377
000350 be 02 1f bf ef 35 00 3f e7 ad 6d 3e 66 80 c7 3e
       -0.6211356 0.50082296 0.2321087 0.38965148
000360 17 8d ae be fe b4 88 be 8f bd 22 bf a0 0b 1d 3f
       -0.34092018 -0.26700586 -0.63570493 0.61345863
000370 29 c2 e8 3d e6 1b 35 bf 75 ae b6 be e6 fa 40 bf
       0.11365158 -0.70745695 -0.35679975 -0.7538284
000380 24 ab fe bd 56 a5 d1 bd d0 f4 dc 3b 0e 9e a6 3e
       -0.12434986 -0.102366135 0.006743051 0.3254246
000390 e7 6c 31 bf 56 06 ba 3e 47 c4 69 be 83 51 c6 3e
       -0.69306797 0.3633296 -0.2282878 0.38734064
0003a0 9e 3a 07 bf 2c eb 75 3d b6 07 c1 be 80 3f 07 3f
       -0.5282382 0.06003873 -0.37701195 0.5283127
0003b0 b7 40 39 3e 80 2b 7c be 0d 1c 44 bd aa a6 b9 be
       0.18091093 -0.24625969 -0.047878314 -0.36259967
0003c0 b0 18 a3 3d aa f0 2b 3e 80 bc ea bd d7 80 ab be
       0.07963693 0.16791025 -0.11461735 -0.33496734
0003d0 cf 06 84 3e c3 d8 b1 be c6 4e bc bb f9 c7 33 be
       0.25786445 -0.3473569 -0.005746695 -0.17556752
0003e0 e4 61 66 3e 77 64 bf 3e d7 31 b2 3e be b1 f3 be
       0.2249828 0.37381336 0.3480365 -0.47596544
0003f0 5a 63 dc bd ec 28 e9 3e e2 0a 69 3e 0e dc 76 3e
       -0.10761137 0.45539033 0.22758058 0.24107382

hidden2.bias f4 [32]
000000 18 10 24 be e7 71 ee bd a9 b5 63 3e 90 4d a2 bd
       -0.16021764 -0.11642819 0.22237267 -0.0792495
000010 51 42 c1 bd ba 0d dd 3c 1d 04 40 be 53 eb 3c 3d
       -0.09436477 0.026984084 -0.18751569 0.04612286
000020 54 21 54 be d7 16 0d 3e 40 b9 ee 3c b1 6c 26 bc
       -0.20715839 0.13778244 0.029141068 -0.01015775
000030 02 ab 53 bd c2 b5 05 be 58 66 60 3e 94 18 c7 3d
       -0.051676758 -0.13057616 0.21914041 0.09721485
000040 ad e0 12 3e ae 9a 93 bd c7 3d b5 bd f4 3c 01 3e
       0.1434352 -0.07207237 -0.08849674 0.12620908
000050 dc 18 56 3c cf 1a 49 be ff 50 10 3d 8f 27 64 3e
       0.01306745 -0.19639133 0.035233494 0.22280715
000060 34 8e 37 3e 70 94 25 3d 4e 80 ad bc c3 07 2c 3e
       0.1792534 0.040424764 -0.021179345 0.16799836
000070 d3 0b 79 bd ec 5f c6 bc a6 88 c1 3c 3f b3 02 3e
       -0.060802292 -0.024215661 0.02362473 0.1276369

hidden3.weight f4 [16, 32]
000000 2e 62 e3 3c 2f f9 36 bd e2 78 18 3e 99 21 35 bd
       0.027756777 -0.044671234 0.14889863 -0.044221494
000010 fd 88 0d 3d 6d 4b 1c be c2 11 11 bd 7e e7 62 be
       0.03455447 -0.15263148 -0.035417326 -0.2215862
000020 11 86 58 3d c4 ab ab 3d 0f 36 27 be 11 c9 e5 bd
       0.05286223 0.08382371 -0.16329215 -0.11219991
000030 a1 c0 92 bd 42 b6 10 be 15 4d cd bc 60 25 f2 3d
       -0.07165647 -0.14132026 -0.02506117 0.11823535
000040 cc bf 14 3e 37 c8 fb 3a ae 70 e7 bd 16 83 28 3b
       0.1452629 0.0019209449 -0.11300789 0.00257129
000050 45 cf 9a bd 7b ef 08 be d1 1c c1 bd 80 eb 1b be
       -0.07559065 -0.13372605 -0.094293244 -0.15226555
000060 71 6b 89 3d 95 aa 30 be b2 b2 25 3d 01 a3 f6 3a
       0.06709946 -0.17252572 0.04045362 0.001881689
000070 fa 8f 21 be d0 cd 73 bd 33 2a cd 3d ac e0 08 3e
       -0.15777579 -0.05952245 0.100178145 0.13366956
000080 c2 89 ff 3c 0f 9a 35 3d 9e ba 51 3c cb 0e c2 3b
       0.031193618 0.044336375 0.012800841 0.0059221736
000090 69 65 49 3e e5 61 86 3d 36 d7 94 3d f8 c0 0e 3e
       0.19667591 0.06561641 0.07267611 0.13940799
0000a0 94 04 34 3d e6 43 be 3b ba 6c 94 3d 12 86 82 bd
       0.04394968 0.005806434 0.072473004 -0.06373228
0000b0 5a 97 2d bd 4c a4 2f 3e d8 c4 a6 bd 53 86 bb bd
       -0.04238067 0.17152518 -0.08143014 -0.0915648
0000c0 52 92 83 bd 60 07 3c be f8 92 07 bd 63 c0 b5 bd
       -0.06424393 -0.18362188 -0.033099145 -0.088745855
0000d0 91 6c c4 bd 24 e3 ad 3d 99 1f 44 be 3d 55 20 be
       -0.0959102 0.08490589 -0.19152679 -0.15657516
0000e0 ea 96 1b be 59 3c dd bd 47 b8 86 bd 16 90 6e bd
       -0.15194288 -0.10802526 -0.06578117 -0.05824288
0000f0 91 35 14 3e 13 cf 70 be 4c f7 80 be ce ef 75 bc
       0.14473559 -0.23516493 -0.25188673 -0.015010787
000100 83 7e c0 3d b7 c7 1a 3e 31 9d 48 be 33 45 af bd
       0.0939913 0.15115248 -0.19591214 -0.085581206
000110 c3 30 00 3e 79 df 84 3c 1c 2d 6b bc f6 11 fd 3d
       0.12518601 0.016219841 -0.014354017 0.123569414
000120 f9 fd b8 bd 7c b5 e1 bd 59 bb 0a bd f8 8a 56 3e
       -0.090328164 -0.110209435 -0.033870075 0.2095145
000130 af 46 22 3e 34 02 78 3e 0f 63 11 3e f9 5a 29 be
       0.15847276 0.2421959 0.14197944 -0.1653861
000140 ba 24 b8 bd 41 7f 7c bd 06 81 23 be f5 7d 97 3d
       -0.0899138 -0.061644796 -0.15967187 0.07397071
000150 6c 00 fb 3d 1c 69 c3 bb 2f 69 06 bd ea 57 fe bd
       0.1225594 -0.0059634577 -0.032815155 -0.12419112
000160 52 31 4b 3c 87 4e a4 bb ae 47 83 3d 44 61 00 3e
       0.012401896 -0.005014244 0.06410156 0.12537104
000170 11 d8 80 bd 21 9e aa 3d 4a 67 34 bd 46 75 83 3d
       -0.062912114 0.08330942 -0.044043817 0.064188525
000180 d1 a9 a1 3d 1d 4f 99 be f9 6b 09 3e d0 c5 d7 bd
       0.07893718 -0.2994317 0.13420095 -0.105357766
000190 5a 9b ce 3d fb 8f 85 bd df fc 3c be b5 db 52 be
       0.10088225 -0.06521603 -0.18455838 -0.20591624
0001a0 25 48 47 3e 7f 87 e7 3d 32 e8 fc 3d d4 59 08 be
       0.19461115 0.11305141 0.12348975 -0.13315517
0001b0 f4 b4 be 3d 6f b0 66 bd 10 31 3b bd b3 5e 41 bc
       0.09311858 -0.056320604 -0.045701087 -0.011802363
0001c0 b0 cf d2 3d 6e da 95 3e da 11 fa bd 56 9c 09 3d
       0.102935195 0.2926821 -0.12210436 0.03359636
0001d0 c7 32 96 bd 79 ac 2e 3e 2b ae 80 3d 9f 65 15 3e
       -0.07333904 0.1705798 0.0628322 0.14589547
0001e0 88 32 59 bd 69 78 2c 3c 68 4f ef bd dc 49 ed 3d
       -0.053026706 0.010526755 -0.116850674 0.11586353
0001f0 34 34 53 be 00 1d 8b bd bf 93 66 3e d3 f7 83 bd
       -0.20625383 -0.06792641 0.22517298 -0.06443753
000200 be 5f 7e 3e c6 ec 7d be ee 43 2c 3e 0a 02 42 bd
       0.2484121 -0.24797353 0.16822788 -0.047365226
000210 94 0e 5f be 01 ab 16 3d 2c 30 75 bd 47 61 fb bd
       -0.21782905 0.036784176 -0.059860393 -0.122744136
000220 1a f2 8a 3e 9f 53 34 3e b0 85 87 3d 8d b0 22 bd
       0.27137834 0.17610024 0.06617296 -0.039719153
000230 a0 a5 80 be 0b c5 5d be 49 96 af bb d3 f9 df bc
       -0.25126362 -0.21657197 -0.0053584916 -0.027340805
000240 fb d4 cc bd ef c1 95 3e b0 87 a9 3d 1c ae 21 3d
       -0.1000156 0.29249522 0.082778335 0.039472684
000250 64 f1 4b be dc 80 67 3c e1 59 e5 3d f4 48 ae 3d
       -0.19916302 0.014129844 0.11198784 0.085100085
000260 17 25 93 3d 4c 2b fa bc 61 da c7 bd 9e 3f 3d 3d
       0.07184809 -0.030538224 -0.09758449 0.04620325
000270 f8 ba 6c be 41 b0 90 3b 96 79 aa 3b ec 3c 6e 3e
       -0.23118198 0.0044155424 0.0052024825 0.23265427
000280 7c a8 6f 3c 02 52 9b bd c3 5b a3 bd 39 e3 0e be
       0.014627572 -0.07584001 -0.079764865 -0.13953866
000290 2e 6f 1f be 92 b7 38 3d ca 43 31 be 2a 67 10 be
       -0.15569755 0.04509694 -0.17311016 -0.14101854
0002a0 26 69 91 3e 28 c5 12 bd 49 6d 07 bc 76 75 7f be
       0.28400534 -0.035832554 -0.008265802 -0.24947152
0002b0 e4 08 04 3c a8 a1 4e be ce 06 ab bd 56 5f 2e 3e
       0.00805876 -0.20178854 -0.08350907 0.17028555
0002c0 98 26 20 be a5 1a 15 3e e2 33 1c be ff 5a 77 3e
       -0.15639722 0.14560945 -0.15254167 0.24155806
0002d0 94 2f 07 3e e8 e8 b1 3d e2 d0 84 3e f1 a0 46 3e
       0.13201743 0.086870015 0.25940615 0.19397332
0002e0 aa 5f 22 bd 6a 62 dc bd 5a 1c 8d bd ff f2 85 3e
       -0.039642014 -0.107609585 -0.06890173 0.26161954
0002f0 e8 e8 61 bb d5 34 f4 3d 98 6f 6e 3e 97 6b 60 3e
       -0.0034471098 0.119241394 0.23284757 0.21916042
000300 c9 87 56 3d 6c fa 2a bd 51 3a fd 3d c3 da 56 be
       0.05237559 -0.041742727 0.123646386 -0.20981888
000310 2c dd f9 bd be b8 f3 bd 66 e4 28 be dc 1d 80 bd
       -0.12200388 -0.11900471 -0.16493377 -0.06255695
000320 e7 0c d2 3d 72 df f0 3c dc 14 27 be c8 db 14 be
       0.10256367 0.029403422 -0.16316551 -0.14536965
000330 28 81 0d be e8 80 a5 be d2 93 3c bd fc ef 21 3e
       -0.138188 -0.3232491 -0.04603941 0.15814203
000340 11 ad 12 3e e8 12 54 3d f7 a7 85 bc 13 be 53 3e
       0.14323832 0.051775843 -0.016315443 0.20677976
000350 57 ab 65 be a5 09 1c 3e 02 5f d0 3d 38 1b 10 3e
       -0.22428642 0.15238054 0.10174371 0.14072883
000360 a0 28 53 3e a5 b2 d9 bc d9 3f 05 be ae b3 4e 3e
       0.20620966 -0.026574442 -0.13012637 0.2018573
000370 1c ab 8b be 22 83 2f 3e 2a 40 73 3e b3 36 03 3e
       -0.27278984 0.17139867 0.23754945 0.12813835
000380 64 c1 94 be 1c df 90 3e 4e a9 32 3c 9b 07 6e 3d
       -0.29053795 0.2829522 0.010904623 0.058112722
000390 df ba 2b 3d a7 84 11 3e 45 bb 9d bd a8 ce cd 3d
       0.04192626 0.14210759 -0.077017345 0.10049182
0003a0 be 4a d0 bd 33 be 22 3c 1b 35 12 3e d9 94 8a 3e
       -0.10170506 0.009933042 0.1427807 0.27066687
0003b0 da 71 6e 3e 51 1c 43 3e b2 b7 c8 bc bd f9 bf bd
       0.23285618 0.1905377 -0.024501655 -0.09373806
0003c0 34 1c 7c 3c 67 48 82 ba 46 df 99 3d 45 66 8e bd
       0.0153875835 -0.000993979 0.07513289 -0.069531
0003d0 a4 72 d3 bd c3 a8 44 3c 4d 7e 0c 3d bf a5 ad 3c
       -0.103246 0.012003127 0.034300137 0.021197198
0003e0 59 1e bc bd 06 75 35 be b3 84 56 bd c4 a3 5d be
       -0.09185476 -0.17720422 -0.052372646 -0.21644503
0003f0 20 54 58 3d dc 11 6f be a5 57 9a 3d ff 33 25 be
       0.052814603 -0.23346657 0.07536248 -0.16133116

hidden3.bias f4 [16]
000000 47 34 e7 3c 8b 5e 29 3d f3 86 b3 bd 92 a3 1c bd
       0.02822317 0.04134993 -0.08765974 -0.03824193
000010 a6 b4 a9 3d be e0 97 bc 5e bf af 3d fa db cd bc
       0.08286409 -0.018539783 0.08581422 -0.025129307
000020 cd b1 06 bd 27 91 83 3d df f5 37 3d b6 6e 06 38
       -0.032884408 0.0642417 0.044912215 3.2051197e-05
000030 22 42 12 be f1 4f 2f be 75 f5 17 3d 05 c3 c2 bd
       -0.1428304 -0.17120339 0.03709932 -0.09509853

out.weight f4 [2, 16]
000000 98 2a 49 3e ae 89 be bc 2c 41 40 3d 7f 99 14 be
       0.19645154 -0.02325901 0.046937153 -0.14511679
000010 87 c2 2f 3e 53 be 47 bd e2 a3 7c 3e d4 11 24 be
       0.1716405 -0.04876549 0.24671891 -0.16022426
000020 76 6f 20 be 08 29 e7 bd 98 25 40 be 18 e6 ce bd
       -0.15667519 -0.11287123 -0.18764341 -0.10102481
000030 7e 2c cd 3d 83 32 3b 3e 82 03 08 3e a6 81 39 be
       0.10018252 0.18280987 0.13282588 -0.18115863
000040 bf 8b 0c bd 17 6b ba bc 82 94 54 3d 6d 55 6b be
       -0.03431296 -0.022756143 0.05189944 -0.22981806
000050 f7 f7 19 be 7c 23 08 be 79 55 b3 3c d8 a5 c1 3d
       -0.15035997 -0.13294786 0.021891342 0.0945546
000060 af 35 31 3e 7c 80 f8 bd b6 7a 94 3e 55 48 e3 bd
       0.17305635 -0.121338814 0.2899987 -0.110977806
000070 a3 34 61 bd 54 9b 6c 3e a1 e7 10 3e 41 32 83 3e
       -0.05498184 0.23106128 0.1415086 0.25624278

out.bias f4 [2]
000000 b1 a1 82 be 78 b6 ea bd
       -0.25513986 -0.114605844
